…
><br><span class="line">47</span><br><span class="line">48</span><br><span class="line">49</span><br><span class="line">50</span><br><span class="line">51</span><br></pre></td><td class="code"><pre><code class="hljs nestedtext">==========================================================================================<br>Layer (type:depth-idx)                   Output Shape              Param #<br><span class="hljs-attribute">==========================================================================================</span><br><span class="hljs-attribute">ResNet                                   [1, 1000]                 --</span><br><span class="hljs-attribute">├─Conv2d</span><span class="hljs-punctuation">:</span> <span class="hljs-string">1-1                            [1, 64, 112, 112]         9,408</span><br><span class="hljs-attribute">├─BatchNorm2d</span><span class="hljs-punctuation">:</span> <span class="hljs-string">1-2                       [1, 64, 112, 112]         128</span><br><span class="hljs-attribute">├─ReLU</span><span class="hljs-punctuation">:</span> <span class="hljs-string">1-3                              [1, 64, 112, 112]         --</span><br><span class="hljs-attribute">├─MaxPool2d</span><span class="hljs-punctuation">:</span> <span class="hljs-string">1-4                         [1, 64, 56, 56]           --</span><br><span class="hljs-attribute">├─Sequential</span><span class="hljs-punctuation">:</span> <span class="hljs-string">1-5                        [1, 256, 56, 56]          --</span><br><span class="hljs-attribute">│    └─Bottleneck</span><span class="hljs-punctuation">:</span> <span class="hljs-string">2-1                   [1, 256, 56, 56]          --</span><br><span class="hljs-attribute">│    │    └─Conv2d</span><span class="hljs-punctuation">:</span> <span class="hljs-string">3-1                  [1, 64, 56, 56]           4,096</span><br><span class="hljs-attribute">│    │    └─BatchNorm2d</span><span class="hljs-punctuation">:</span> <span class="hljs-string">3-2             [1, 64, 56, 56]           128</span><br><span class="hljs-attribute">│    │    └─ReLU</span><span class="hljs-punctuation">:</span> <span class="hljs-string">3-3                    [1, 64, 56, 56]           --</span><br><span class="hljs-attribute">│    │    └─Conv2d</span><span class="hljs-punctuation">:</span> <span class="hljs-string">3-4                  [1, 64, 56, 56]           36,864</span><br><span class="hljs-attribute">│    │    └─BatchNorm2d</span><span class="hljs-punctuation">:</span> <span class="hljs-string">3-5             [1, 64, 56, 56]           128</span><br><span class="hljs-attribute">│    │    └─ReLU</span><span class="hljs-punctuation">:</span> <span class="hljs-string">3-6                    [1, 64, 56, 56]           --</span><br><span class="hljs-attribute">│    │    └─Conv2d</span><span class="hljs-punctuation">:</span> <span class="hljs-string">3-7                  [1, 256, 56, 56]          16,384</span><br><span class="hljs-attribute">│    │    └─BatchNorm2d</span><span class="hljs-punctuation">:</span> <span class="hljs-string">3-8             [1, 256, 56, 56]          512</span><br><span class="hljs-attribute">│    │    └─Sequential</span><span class="hljs-punctuation">:</span> <span class="hljs-string">3-9              [1, 256, 56, 56]          16,896</span><br><span class="hljs-attribute">│    │    └─ReLU</span><span class="hljs-punctuation">:</span> <span class="hljs-string">3-10                   [1, 256, 56, 56]          --</span><br><span class="hljs-attribute">│    └─Bottleneck</span><span class="hljs-punctuation">:</span> <span class="hljs-string">2-2                   [1, 256, 56, 56]          --</span><br><br><span class="hljs-comment"># 由于层数较多，不方便全部展示，因此在此删去了一部分</span><br><br><span class="hljs-attribute">│    │    └─Conv2d</span><span class="hljs-punctuation">:</span> <span class="hljs-string">3-443                [1, 2048, 7, 7]           1,048,576</span><br><span class="hljs-attribute">│    │    └─BatchNorm2d</span><span class="hljs-punctuation">:</span> <span class="hljs-string">3-444           [1, 2048, 7, 7]           4,096</span><br><span class="hljs-attribute">│    │    └─ReLU</span><span class="hljs-punctuation">:</span> <span class="hljs-string">3-445                  [1, 2048, 7, 7]           --</span><br><span class="hljs-attribute">│    └─Bottleneck</span><span class="hljs-punctuation">:</span> <span class="hljs-string">2-50                  [1, 2048, 7, 7]           --</span><br><span class="hljs-attribute">│    │    └─Conv2d</span><span class="hljs-punctuation">:</span> <span class="hljs-string">3-446                [1, 512, 7, 7]            1,048,576</span><br><span class="hljs-attribute">│    │    └─BatchNorm2d</span><span class="hljs-punctuation">:</span> <span class="hljs-string">3-447           [1, 512, 7, 7]            1,024</span><br><span class="hljs-attribute">│    │    └─ReLU</span><span class="hljs-punctuation">:</span> <span class="hljs-string">3-448                  [1, 512, 7, 7]            --</span><br><span class="hljs-attribute">│    │    └─Conv2d</span><span class="hljs-punctuation">:</span> <span class="hljs-string">3-449                [1, 512, 7, 7]            2,359,296</span><br><span class="hljs-attribute">│    │    └─BatchNorm2d</span><span class="hljs-punctuation">:</span> <span class="hljs-string">3-450           [1, 512, 7, 7]            1,024</span><br><span class="hljs-attribute">│    │    └─ReLU</span><span class="hljs-punctuation">:</span> <span class="hljs-string">3-451                  [1, 512, 7, 7]            --</span><br><span class="hljs-attribute">│    │    └─Conv2d</span><span class="hljs-punctuation">:</span> <span class="hljs-string">3-452                [1, 2048, 7, 7]           1,048,576</span><br><span class="hljs-attribute">│    │    └─BatchNorm2d</span><span class="hljs-punctuation">:</span> <span class="hljs-string">3-453           [1, 2048, 7, 7]           4,096</span><br><span class="hljs-attribute">│    │    └─ReLU</span><span class="hljs-punctuation">:</span> <span class="hljs-string">3-454                  [1, 2048, 7, 7]           --</span><br><span class="hljs-attribute">├─AdaptiveAvgPool2d</span><span class="hljs-punctuation">:</span> <span class="hljs-string">1-9                 [1, 2048, 1, 1]           --</span><br><span class="hljs-attribute">├─Linear</span><span class="hljs-punctuation">:</span> <span class="hljs-string">1-10                           [1, 1000]                 2,049,000</span><br><span class="hljs-attribute">==========================================================================================</span><br><span class="hljs-attribute">Total params</span><span class="hljs-punctuation">:</span> <span class="hljs-string">60,192,808</span><br><span class="hljs-attribute">Trainable params</span><span class="hljs-punctuation">:</span> <span class="hljs-string">60,192
…
